model/model_backup.pkl (torch_old, 133697 bytes, 30 tensors)

weight f8 [12, 12]
00000000: 92cb 7f48 bf7d cdbf 1dc9 e53f a4df e63f
00000010: 1c7c 6132 5530 e4bf 79e9 2631 08ac 9cbf
00000020: 560e 2db2 9def c73f d200 de02 098a 9f3f
00000030: 2aa9 13d0 44d8 a0bf a167 b3ea 73b5 85bf
00000040: 9c68 6a5c 0f95 633f 8984 bb35 ee2a 3fbf
00000050: 6014 1727 1a05 453f 4854 6fe3 268e 563f
00000060: 9190 c896 be73 52bf 92cb 7f48 bf7d cdbf
00000070: 1dc9 e53f a4df e63f 1c7c 6132 5530 e4bf
00000080: 79e9 2631 08ac 9cbf 560e 2db2 9def c73f
00000090: d200 de02 098a 9f3f 2aa9 13d0 44d8 a0bf
000000a0: a167 b3ea 73b5 85bf 741c ba43 a0aa 3f3f
000000b0: d74b 8909 094c 263f 26ff 8847 95ba 37bf
000000c0: 5767 c69a ee47 36bf 6fb7 afd6 1c21 50bf
000000d0: 92cb 7f48 bf7d cdbf 1dc9 e53f a4df e63f
000000e0: 1c7c 6132 5530 e4bf 79e9 2631 08ac 9cbf
000000f0: 560e 2db2 9def c73f d200 de02 098a 9f3f
00000100: 2aa9 13d0 44d8 a0bf a167 b3ea 73b5 85bf
00000110: 1c01 f83a 634d 3fbf 8ad1 e12c f5a9 27bf
00000120: a547 e3ae b3c6 2b3f 988d 63d5 31ce 413f
00000130: 3710 8ebe bdfb 323f 92cb 7f48 bf7d cdbf
00000140: 1dc9 e53f a4df e63f 1c7c 6132 5530 e4bf
00000150: 79e9 2631 08ac 9cbf 560e 2db2 9def c73f
00000160: d200 de02 098a 9f3f 2aa9 13d0 44d8 a0bf
00000170: a167 b3ea 73b5 85bf db23 cecd a4f1 42bf
00000180: f46b 4c02 3bf9 633f 3785 86c7 5f81 563f
00000190: 29b0 01f7 26de 303f 3c41 88ba c86a 233f
000001a0: 92cb 7f48 bf7d cdbf 1dc9 e53f a4df e63f
000001b0: 1c7c 6132 5530 e4bf 79e9 2631 08ac 9cbf
000001c0: 560e 2db2 9def c73f d200 de02 098a 9f3f
000001d0: 2aa9 13d0 44d8 a0bf a167 b3ea 73b5 85bf
000001e0: b499 7d97 20d1 58bf 3eea a33d 1d59 3f3f
000001f0: ee31 7cb1 7437 1abf 595d c527 2127 4cbf
00000200: ef76 36c2 829c 283f 92cb 7f48 bf7d cdbf
00000210: 1dc9 e53f a4df e63f 1c7c 6132 5530 e4bf
00000220: 79e9 2631 08ac 9cbf 560e 2db2 9def c73f
00000230: d200 de02 098a 9f3f 2aa9 13d0 44d8 a0bf
00000240: 6135 72dd 31fd 5f3f fd27 07d5 b56a 4c3f
00000250: fc04 b680 1b59 52bf 7df9 a3f0 f2e7 3abf
00000260: 5f78 9ac6 5b57 443f b176 b39e 27d7 33bf
00000270: 92cb 7f48 bf7d cdbf 1dc9 e53f a4df e63f
00000280: 1c7c 6132 5530 e4bf 79e9 2631 08ac 9cbf
00000290: 560e 2db2 9def c73f d200 de02 098a 9f3f
000002a0: 41e9 6c50 e07d 5c3f fc2b 0c0c 5f85 5dbf
000002b0: fda3 9251 e205 463f 137d 8111 2feb 4a3f
000002c0: f5c0 13d3 34d1 503f 268b 01e0 f536 5b3f
000002d0: d52a db38 f948 3abf 92cb 7f48 bf7d cdbf
000002e0: 1dc9 e53f a4df e63f 1c7c 6132 5530 e4bf
000002f0: 79e9 2631 08ac 9cbf 560e 2db2 9def c73f
00000300: 6649 5ddc d288 523f 8b79 58fc f57d 28bf
00000310: b7ce 510e dbd9 303f d7ff 238a 0265 443f
00000320: 0d80 e76e be4c 38bf 2f2b 85d2 18d6 30bf
00000330: 1b0a cafd bf96 543f 7c81 2931 9e8a 5abf
00000340: 92cb 7f48 bf7d cdbf 1dc9 e53f a4df e63f
00000350: 1c7c 6132 5530 e4bf 79e9 2631 08ac 9cbf
00000360: 35f7 d09b d06a 523f e19f 1579 b91f 333f
00000370: 5c5e dcfe 58de 2abf 866f 1f48 54e1 3bbf
00000380: 7c23 cb3e 7e42 50bf 543d dec9 b6cb 3a3f
00000390: 4597 b3f0 7605 443f 6825 5336 8572 483f
000003a0: 2c76 3441 037c 483f 92cb 7f48 bf7d cdbf
000003b0: 1dc9 e53f a4df e63f 1c7c 6132 5530 e4bf
000003c0: c5df c5cb 0c0c 5cbf 4a8a 4e05 de33 533f
000003d0: ee7a ed29 e7cb 4c3f 7d20 1936 69f5 41bf
000003e0: 9c30 73e6 1899 5b3f ce86 bd3d 8dec 3bbf
000003f0: 8c41 e564 a2a1 2e3f fb06 0ee9 ba80 263f
00000400: 7be4 48ee 4e32 4e3f 66cf 1f32 1d04 523f
00000410: 92cb 7f48 bf7d cdbf 1dc9 e53f a4df e63f
00000420: 4a5d 7e6f b197 52bf 9534 e975 6885 4b3f
00000430: 5233 a7f8 9587 423f 3b62 1997 2771 34bf
00000440: 74fb 973a 4ba5 543f 05bc eee4 16b7 5abf
00000450: ca1d fd2e 3d54 2abf df2d ac5c 7944 54bf
00000460: faad 5227 b65b 483f ed93 7b79 a1d1 46bf
00000470: 28c7 9257 7316 523f 92cb 7f48 bf7d cdbf
-0.2304 0.7148 -0.6309 -0.028 0.187 0.0308 -0.0329 -0.0106
0.0023904132861619198 -0.000475581318580672 0.000641477365370801 0.00137666509339353 -0.0011262284489328737 -0.2304 0.7148 -0.6309
-0.028 0.187 0.0308 -0.0329 -0.0106 0.00048319256504964565 0.00017011270826347458 -0.00036207336919246086
-0.00033998084361429787 -0.0009844571711669877 -0.2304 0.7148 -0.6309 -0.028 0.187 0.0308
-0.0329 -0.0106 -0.0004776351224507079 -0.0001805412088661358 0.00021191543004888988 0.0005433791473276493 0.00028966314726397733 -0.2304
0.7148 -0.6309 -0.028 0.187 0.0308 -0.0329 -0.0106 -0.0005781225878403977
0.002438178302680333 0.001373618635718122 0.00025738192835578433 0.00014814091015625554 -0.2304 0.7148 -0.6309 -0.028
0.187 0.0308 -0.0329 -0.0106 -0.0015147035864743032 0.00047833408247269563 -0.00010000848521602549 -0.0008591567889579085
0.00018776985335205258 -0.2304 0.7148 -0.6309 -0.028 0.187 0.0308 -0.0329
0.0019524561846851684 0.0008672130443809764 -0.0011198776799974932 -0.00041055375244516257 0.0006207655071255417 -0.0003027412155470573 -0.2304 0.7148
-0.6309 -0.028 0.187 0.0308 0.0017389956062304342 -0.0018018177217438138 0.0006720881530287711 0.0008214931322178286
0.0010264411797003524 0.001661052810981453 -0.00040107807658943995 -0.2304 0.7148 -0.6309 -0.028 0.187
0.0011312541186795032 -0.0001868593955558047 0.00025712583585078434 0.0006223928833435322 -0.00037078522919209504 -0.00025690179838437887 0.0012566447177567777 -0.0016199631542335993
-0.2304 0.7148 -0.6309 -0.028 0.0011240994638365813 0.00029180791997029774 -0.0002049907338281695 -0.00042541797313133017
-0.000992415701306564 0.0004088708172895379 0.0006110029948131831 0.0007460737657762175 0.0007472053424952322 -0.2304 0.7148 -0.6309
-0.001711857315141772 0.0011720340892017616 0.0008787993173021405 -0.0005480540969040739 0.0016844504514664021 -0.00042608688612775787 0.00023369891500603054 0.000171683136184035
0.0009215245632453595 0.0010996136775220599 -0.2304 0.7148 -0.0011347992676514367 0.0008398780881379181 0.0005654794961685672 -0.00031192032392860267
0.0012601122529074223 -0.001630565984424016 -0.00020087477559570097 -0.0012370286155512983 0.0007433547422314717 -0.000696376652709161 0.0011039854419263116 -0.2304

bias f8 [12]
00000000: 0000 0080 36c2 b83f 0000 0040 cc6a c5bf
00000010: 0000 0040 0930 ccbf 0000 0040 d5f3 c5bf
00000020: 0000 0020 a55d cdbf 0000 0000 88c6 87bf
00000030: 0000 0000 21d1 bcbf 0000 0060 0cd0 cabf
00000040: 0000 0000 7ad3 9cbf 0000 0000 a58e ce3f
00000050: 0000 0000 8352 b3bf 0000 0040 eb2a c13f
0.09671345353126526 -0.16732171177864075 -0.22021594643592834 -0.1715036928653717 -0.22942031919956207 -0.011609137058258057 -0.11256605386734009 -0.2094741314649582
-0.028150469064712524 0.23872816562652588 -0.07547777891159058 0.13412228226661682

weight f8 [12, 12]
00000000: fcbc f674 0e91 5c3f 4b40 b47c 8261 cdbf
00000010: 2ed0 116d 3f8c acbf 4e57 d12e 9666 d2bf
00000020: 5569 2b3a a9d8 bfbf 4045 e29f 88e4 d83f
00000030: 0262 9939 3a87 df3f 26b2 922e 6613 b4bf
00000040: 707a fefd dc5b cabf 4341 0292 776d b7bf
00000050: db02 048b 0af0 ba3f 3e11 d7fe f52b e83f
00000060: f729 885a 88a1 903f d044 e251 6f3b d6bf
00000070: c567 d801 ad6f bcbf aa01 8a40 0eb6 b6bf
00000080: 4645 6af0 f115 d1bf 2aa0 f0a5 a296 cebf
00000090: 4b36 3a4c aeac d93f e988 ec5b 74c2 db3f
000000a0: 56f3 a5fa 6017 a73f 52c2 b77b bb26 b1bf
000000b0: 4e56 740f 62e2 c13f 5d07 a1ee 2ef3 e83f
000000c0: 8839 4f8e f97b b4bf 3f32 478e 255a babf
000000d0: 33c4 7ec2 8c40 99bf fdee 4e6a 501b 993f
000000e0: d13a 653f 7dc8 a63f 752a 3305 42a9 cebf
000000f0: 8bb2 38d8 4d35 c3bf 5b1a b745 77c4 dc3f
00000100: 9a0d 39d1 b629 e03f 36f9 8b89 9916 a03f
00000110: 46a5 c177 493c aebf ceb3 3d37 70dd e03f
00000120: e673 ded4 91c8 a7bf 1409 bdcc 7440 c3bf
00000130: cd7a f195 e036 b4bf 9812 5dd6 9b8f b3bf
00000140: d9f7 9cf5 1af4 823f b0db 224d c469 163f
00000150: 1d19 f0c7 12e0 cfbf 05b5 aadf 6f0c c5bf
00000160: ed07 90a5 2426 dc3f 3eaa 5c55 e81f e13f
00000170: f357 a32e 243d c63f cc6f cf89 ad24 e03f
00000180: dd21 caa2 94f2 91bf a7ba fa7d 86f3 c7bf
00000190: 2fca fb4f f321 c0bf 1efe 60ac 82e9 bcbf
000001a0: c136 5bb6 d53b b3bf e293 78e6 5b1e 98bf
000001b0: fbb2 24fa 986e a9bf 0f6a ef07 128c d5bf
000001c0: 507b c04e 0782 d0bf 9fc2 d1f4 d4d3 da3f
000001d0: b51c 1a05 9c22 e53f ad97 ddfe 17e8 e73f
000001e0: f826 0f65 3214 ba3f e795 0f67 86c4 78bf
000001f0: 7c6c c365 fd8a 793f f4e2 7125 2a4b 93bf
00000200: f00a eb86 31ae 71bf 8aa1 a174 b357 99bf
00000210: 18bb 912d 0f0a 87bf 3e5b 6da9 4cc1 b8bf
00000220: a26d 5cd0 c2d1 dabf 39c5 9e8c c348 d2bf
00000230: 1b39 24d0 87e2 e03f 42bd 99c3 8c7e f33f
00000240: 4e6b 16f6 ebe8 903f 1f6d 9f6e 392b c9bf
00000250: afae 08d5 a360 b5bf 9aba b8fe dcf5 b1bf
00000260: 5c5b f1f1 46f2 95bf 3f2c 76bf 276c a7bf
00000270: 2dc5 6caf 72d6 a0bf 4b19 801b 38c3 afbf
00000280: 3d51 3e47 5e05 abbf 6a9c bce9 96e6 ccbf
00000290: f999 9e22 9e49 b63f 6f46 ae00 d09f f53f
000002a0: 0291 6959 8ae2 b03f 375b 00d5 30b3 cb3f
000002b0: d3e3 2577 0dcc d03f 2178 ecb9 a977 cd3f
000002c0: b484 2e88 a52c cb3f 421f 1b5d 6ab2 b13f
000002d0: 967b 7367 49ae a13f 0362 56fa 920d 9ebf
000002e0: b2ce 0eb9 7a65 97bf 2f30 4656 538d adbf
000002f0: cf7a 43e3 c8e4 c5bf ec3d 1efc 69ed e43f
00000300: 1a83 c11a 7826 793f 46a0 ebdd 08a5 c63f
00000310: b568 7cac aa1c ce3f 31ce cc1e 87f8 c93f
00000320: 9df6 3c0e bf22 c93f 7619 a178 e54c b33f
00000330: 8f49 4395 27b1 a33f 060c 4c2c 675b 93bf
00000340: a4db 03ea bb27 b1bf 77e6 5d20 7c73 a6bf
00000350: be6d 9e84 7b0f af3f dead 63f4 1127 df3f
00000360: c825 8653 9d9b b13f 6856 f0b9 9c41 c43f
00000370: 8018 aed3 9755 ca3f a8fb 8868 e694 c63f
00000380: 1e75 5cbf 10ce c53f b88e 7637 756b ad3f
00000390: d396 9958 a3dd 9d3f cff3 cef4 265c a2bf
000003a0: e4b8 0e71 870f b5bf 340f 90ac b447 bebf
000003b0: 5756 c534 3346 a43f 2f69 4b97 0004 e63f
000003c0: 276c 0765 b379 b2bf 2f4d 35e6 0c24 bc3f
000003d0: a907 08cb f199 c43f b076 cff5 1040 c03f
000003e0: e10e 5efa 7f81 c03f 12bf 970a ab04 b63f
000003f0: be40 2249 10ac a13f 74c9 ecf1 1e92 2f3f
00000400: c470 41a3 76d9 afbf 4f66 1cbd 0540 b5bf
00000410: de4b a624 5ba0 9b3f 4638 aa10 eba5 e63f
00000420: 1fed 77cc 470d 903f d8c8 6ed1 8fbc ce3f
00000430: 940f eaed cae4 d03f f0a9 622f 0aae ca3f
00000440: 12b0 a44d f6c2 c63f c69b 1c03 bff6 b63f
00000450: 2871 e3de 7f63 933f af3d 007b 099e 8ebf
00000460: e8e4 9ee7 8311 b5bf 108a f6a9 ad66 bdbf
00000470: 0ebe 6f11 bd81 7fbf a12b 71f2 9c4c e53f
0.0017435685329976738 -0.22953826035564115 -0.05575750547805601 -0.2875113923267819 -0.12439973516612686 0.3889485894552145 0.4926286280147282 -0.07842100750958333
-0.20592844392827514 -0.09151408495586559 0.10522523778855535 0.7553663232179486 0.016241198087337563 -0.3473776149413199 -0.1110790376191338 -0.08871544910107923
-0.2669644210628416 -0.23897202589546512 0.40116460270005366 0.4337435624785387 0.04510024127646399 -0.06699725885824506 0.1397211623631613 0.7796854649279613
-0.08001670574524244 -0.10293802951418572 -0.0246603006086767 0.02451825760702685 0.0444983615767477 -0.23954034093761192 -0.1500642114418905 0.4494913273632954
0.5050920568832453 0.03142242244756448 -0.05905370318289242 0.5270310477186457 -0.04645210002420423 -0.150404548616344 -0.07896236096119509 -0.07641004546628449
0.009254656429785445 8.549938800937631e-05 -0.24902567637054399 -0.16444204732162163 0.43982807319855405 0.5351449649072675 0.17374088551758823 0.5044772807700553
-0.017526934085738567 -0.1871193041929093 -0.12603608518073048 -0.1129380865904683 -0.07513175680216035 -0.023553310338815588 -0.049671917471959724 -0.33667422079966597
-0.25793631258595884 0.41917919071333104 0.6604747867248962 0.7470817544788041 0.10187067954316464 -0.006046795854648824 0.0062360666599615665 -0.01884141782327027
-0.004316514458596585 -0.024748615258802377 -0.011249655321277127 -0.09669951568990329 -0.41905279491194325 -0.2856911538356886 0.527652651335106 1.2183959618231062
0.016513525862687665 -0.19663160230161567 -0.08350585890792205 -0.07015782564915654 -0.0214320264024893 -0.04574703418901337 -0.032886108316583985 -0.06203627906511374
-0.05277533168478719 -0.22578703320434396 0.08706081719592608 1.3515167261688494 0.0659567325870434 0.21640596771677575 0.2624543822817575 0.2302143247442823
0.21230000638482738 0.06912865422338846 0.03453282726126543 -0.029348656205543843 -0.022848050637277857 -0.05771885326530001 -0.17104445549826727 0.6539812015707276
0.006140202673208939 0.17691145740468722 0.23524983808676372 0.2028969669714669 0.19637287326070388 0.0753920955185999 0.03846095749908606 -0.018903362349203
-0.06701254332788992 -0.043849829627061014 0.06066499704248994 0.48675965181493364 0.06878073968086718 0.15825232581180448 0.20573709331455703 0.17641906837704124
0.17035111755186788 0.05746046354331952 0.029165794642174014 -0.035859315284575304 -0.0822682047862347 -0.11828164303738903 0.039598083678964606 0.6879885630581039
-0.072169506230623 0.10992508526151278 0.1609480134357544 0.12695514681302233 0.1289520237443105 0.08600873001682555 0.03451586621042811 0.00024086597201173796
-0.062205989292779346 -0.08300815455404485 0.026978897201455847 0.7077536893355123 0.015675660948528788 0.24012944914063072 0.2639643977529371 0.20843627275219445
0.17782477179696393 0.0897025473210383 0.018934247950583544 -0.014949869219008287 -0.08229851155092016 -0.11484799766052611 -0.0076920876954171945 0.665602181930229

bias f8 [12]
00000000: bb76 f5f3 b0e0 f1bf a1ce f47f 7550 f3bf
00000010: a7e8 d0af 3b00 f1bf 1757 6d85 4188 f1bf
00000020: 9611 a563 83ed f3bf 5b54 c060 a857 e5bf
00000030: dda3 16c3 075f f3bf ed00 e109 c9c1 e2bf
00000040: 74ad d66b ffb8 e7bf 35c5 bf17 03fb e4bf
00000050: e7bf 2d54 eff1 f2bf 8ba3 64c8 0a7d eabf
-1.1173562554971983 -1.2071433065693002 -1.0625569217504933 -1.0957656108852853 -1.2454866306662544 -0.6669504060433938 -1.2107007618562797 -0.586155432982222
-0.7413327318403575 -0.6556411231851259 -1.1840661323767507 -0.8277639306953558

weight f8 [6, 6]
00000000: 92cb 7f48 bf7d cdbf 1dc9 e53f a4df e63f
00000010: 1c7c 6132 5530 e4bf 79e9 2631 08ac 9cbf
00000020: 560e 2db2 9def c73f d200 de02 098a 9f3f
00000030: 50bd 4d03 5383 66bf 92cb 7f48 bf7d cdbf
00000040: 1dc9 e53f a4df e63f 1c7c 6132 5530 e4bf
00000050: 79e9 2631 08ac 9cbf 560e 2db2 9def c73f
00000060: 9b7c 0a81 f92e 22bf c517 7001 0047 59bf
00000070: 92cb 7f48 bf7d cdbf 1dc9 e53f a4df e63f
00000080: 1c7c 6132 5530 e4bf 79e9 2631 08ac 9cbf
00000090: 2937 64a9 2a2b 02bf b040 0a70 9394 54bf
000000a0: 28cc ed2a f673 503f 92cb 7f48 bf7d cdbf
000000b0: 1dc9 e53f a4df e63f 1c7c 6132 5530 e4bf
000000c0: f269 07c3 78bf 513f 1b5a 2a89 e47c 553f
000000d0: f99f 55cc 2e66 263f 4d4d d6c7 b9d8 4dbf
000000e0: 92cb 7f48 bf7d cdbf 1dc9 e53f a4df e63f
000000f0: 2bef 0dbf 7cb5 353f 5151 d7dc 6583 563f
00000100: 1fc9 e38a c031 593f 631d 8c3a 49a1 233f
00000110: 1c08 d712 405a 5e3f 92cb 7f48 bf7d cdbf
-0.2304 0.7148 -0.6309 -0.028 0.187 0.0308 -0.002748167166309358 -0.2304
0.7148 -0.6309 -0.028 0.187 -0.00013872905448850535 -0.001542806630597125 -0.2304 0.7148
-0.6309 -0.028 -3.465389197475209e-05 -0.0012561263867248255 0.0010042098981244505 -0.2304 0.7148 -0.6309
0.0010832480730785768 0.0013115150256105604 0.0001708919645964089 -0.000910845483007719 -0.2304 0.7148 0.0003312520557796512 0.0013741011383575261
0.0015377407358384066 0.00014976519494090253 0.0018525720328033185 -0.2304

bias f8 [6]
00000000: 0000 0040 fda4 d5bf 0000 00c0 fe32 d13f
00000010: 0000 0000 3893 c43f 0000 0000 9bed cdbf
00000020: 0000 00c0 67bc d23f 0000 0000 2f85 a9bf
-0.33819514513015747 0.2687374949455261 0.16074275970458984 -0.23381364345550537 0.2927493453025818 -0.04984423518180847

weight f8 [6, 6]
00000000: 05ce 10b3 806a eabf 5bcd 7bc1 01a1 dcbf
00000010: c4a3 906b d139 ddbf cc2f b669 3c95 ecbf
00000020: ac3b a898 fe2b e2bf d97c 6e76 1a3a d23f
00000030: 36ad 6cf8 91f4 e6bf 699f 7369 77ef d8bf
00000040: 67a3 fc1b 7080 d6bf 6290 6386 4395 e2bf
00000050: a28d a308 e00e e4bf 5c29 15fb e26e d2bf
00000060: 6967 0f72 347a e7bf aa1f de2b 5767 debf
00000070: 6830 3662 b4da dfbf a81d 459f 9456 e6bf
00000080: 3872 af5f 02e2 e1bf 1e90 4311 3df7 e0bf
00000090: 192e aa8a 63a8 e8bf 6e26 c38b e54b e0bf
000000a0: 6583 74c0 1db9 e0bf c259 967a 48d7 e8bf
000000b0: e140 043c def3 e2bf 03cd 7fe2 7086 d5bf
000000c0: 318a 69bb 6882 e9bf e002 446a 3d0d e4bf
000000d0: 40ff 5194 bc2f e5bf 98b6 0488 dd4f ebbf
000000e0: bb58 25c7 d603 e9bf ac79 1b90 02ce e3bf
000000f0: 460c de8e 23bb e9bf ccc0 d175 7850 e4bf
00000100: 9b9d a374 c48c e5bf c2f2 8a40 6d94 ebbf
00000110: 8e21 bdcb bbd2 e8bf 7886 22a8 0022 e5bf
-0.8255008218170025 -0.4473270787704757 -0.4566539335669939 -0.8932172836953156 -0.5678704244218031 0.2847963482435723 -0.7173547603646628 -0.38961587236416634
-0.35158922894566164 -0.580720674970973 -0.6268158119896052 -0.2880179836253285 -0.733667586110852 -0.4750574043650838 -0.49772367087348934 -0.6980689154378767
-0.5588390225271445 -0.5301804864107031 -0.7705552776619157 -0.5092647294743082 -0.5225971945657021 -0.7762796777995435 -0.5922690555762778 -0.33633062476219794
-0.7971690807719992 -0.626616199064383 -0.6620772263413315 -0.8534991890534966 -0.7817186250274725 -0.6188977064701269 -0.8040941038492597 -0.6348230649146216
-0.6734335210903056 -0.8618685017205154 -0.775724313666659 -0.6604007038005895

bias f8 [6]
00000000: b548 5bf3 9ca8 de3f 8bf1 7c02 7a47 e13f
00000010: 3c05 58a3 cdfa df3f 6890 8937 90ba e23f
00000020: fad8 3b21 a4ec a93f ddac d9c3 e823 d13f
0.4790413261918148 0.5399751709551749 0.499682816997012 0.5852738461221749 0.050633553559167724 0.26781672597890155

weight_ih_l0 f8 [128, 1]
00000000: 0000 00e0 a33d babf 0000 0060 4bc8 c23f
00000010: 0000 00a0 7dab c43f 0000 0000 b28b 9d3f
00000020: 0000 0080 89d3 a33f 0000 00c0 d70b b33f
00000030: 0000 00c0 c49b b2bf 0000 0040 ad48 adbf
00000040: 0000 00e0 a68f c13f 0000 0080 c3ec ae3f
00000050: 0000 00c0 09fe acbf 0000 0000 6fe5 a43f
00000060: 0000 0080 c704 aabf 0000 0040 b2c7 c5bf
00000070: 0000 0040 dbf1 bf3f 0000 00a0 cf06 c43f
00000080: 0000 00a0 f273 c63f 0000 0020 9ee9 c43f
00000090: 0000 0000 ac2e 803f 0000 0080 c90a b23f
000000a0: 0000 0040 cfcf bf3f 0000 00e0 8fe8 b4bf
000000b0: 0000 00a0 a83f c33f 0000 0000 66e3 9c3f
000000c0: 0000 0000 10ad 57bf 0000 0080 bae8 ac3f
000000d0: 0000 00c0 e22b bf3f 0000 00c0 fdb3 b33f
000000e0: 0000 00e0 f15a c53f 0000 0020 64b2 bebf
000000f0: 0000 0000 e882 6f3f 0000 0000 14c9 c5bf
00000100: 0000 0080 fe35 c4bf 0000 00c0 4c53 c4bf
00000110: 0000 0000 166b b1bf 0000 0080 bc90 b03f
00000120: 0000 00e0 75c4 bcbf 0000 0040 d37b b5bf
00000130: 0000 00c0 dde4 b33f 0000 0060 20b5 c33f
00000140: 0000 0020 e7fd c33f 0000 00c0 cd1b b43f
00000150: 0000 00e0 b046 c23f 0000 0000 28e1 9d3f
00000160: 0000 0080 ceb3 a3bf 0000 0040 fb6b ba3f
00000170: 0000 0000 bbc0 a2bf 0000 0080 9bf7 a13f
00000180: 0000 00a0 9fd9 c0bf 0000 0080 47ac aa3f
00000190: 0000 00e0 35e2 c33f 0000 0040 604a b5bf
000001a0: 0000 0000 58c2 6cbf 0000 0000 33b5 913f
000001b0: 0000 0000 2e72 87bf 0000 00c0 008f ba3f
000001c0: 0000 0080 5912 a63f 0000 0000 ceef babf
000001d0: 0000 0000 7cbc b23f 0000 0000 514b a03f
000001e0: 0000 0060 57ff b3bf 0000 00e0 368d c43f
000001f0: 0000 00c0 5d76 c4bf 0000 0000 90cc 553f
00000200: 0000 00e0 0939 b6bf 0000 0020 1c58 bcbf
00000210: 0000 00e0 be68 c2bf 0000 00c0 94da c3bf
00000220: 0000 0000 33bb 913f 0000 0040 0cae afbf
00000230: 0000 0000 17bb b2bf 0000 00c0 6ad7 bd3f
00000240: 0000 0040 3979 c3bf 0000 0080 bdc5 ab3f
00000250: 0000 00c0 a69f b03f 0000 0040 414a b23f
00000260: 0000 0000 3743 97bf 0000 00a0 0c48 c63f
00000270: 0000 00a0 73db c2bf 0000 0040 86a6 c0bf
00000280: 0000 0060 f289 c2bf 0000 00a0 7158 c5bf
00000290: 0000 0000 24b8 b13f 0000 0000 d216 913f
000002a0: 0000 0020 ddf0 c5bf 0000 0060 5fd4 c13f
000002b0: 0000 00a0 9920 c63f 0000 0000 0924 903f
000002c0: 0000 0000 6631 9c3f 0000 00c0 4e79 b13f
000002d0: 0000 0020 7a82 c63f 0000 00c0 6c48 c0bf
000002e0: 0000 00e0 20ec c03f 0000 0060 4382 c33f
000002f0: 0000 0080 f5a9 ac3f 0000 00a0 91f6 c13f
00000300: 0000 0000 cfe1 94bf 0000 00c0 c7b7 bd3f
00000310: 0000 00a0 db74 c53f 0000 0000 700e 9fbf
00000320: 0000 0000 27db b1bf 0000 0060 91fb c13f
00000330: 0000 0000 c513 a9bf 0000 0040 1157 b73f
00000340: 0000 0060 5319 c3bf 0000 0000 d9c1 99bf
00000350: 0000 0080 7beb bcbf 0000 0000 de37 c5bf
00000360: 0000 0000 a0d4 933f 0000 0000 eccd 71bf
00000370: 0000 0020 f63f c63f 0000 0000 0472 90bf
00000380: 0000 00e0 29a0 b9bf 0000 00a0 ddd2 c3bf
00000390: 0000 0040 5204 c4bf 0000 0020 6869 c2bf
000003a0: 0000 0080 bceb acbf 0000 0080 bb5e b7bf
000003b0: 0000 0020 17a7 c3bf 0000 0080 16b9 babf
000003c0: 0000 0040 8c4a b33f 0000 0000 d4f2 a43f
000003d0: 0000 00c0 b8e8 c2bf 0000 0000 c889 ae3f
000003e0: 0000 00a0 2c39 b7bf 0000 0060 e085 c6bf
000003f0: 0000 0000 f72f 903f 0000 0000 f1b9 babf
-0.10250305384397507 0.1467375010251999 0.16148348152637482 0.02885320782661438 0.03872327506542206 0.07439945638179779 -0.07268933951854706 -0.05719510465860367
0.1371964067220688 0.060400113463401794 -0.05662565678358078 0.040812939405441284 -0.050817713141441345 -0.17015674710273743 0.1247841864824295 0.15645785629749298
0.17541344463825226 0.16337944567203522 0.007901519536972046 0.07047709822654724 0.1242646723985672 -0.08167361468076706 0.1503802090883255 0.028211206197738647
-0.0014450699090957642 0.056463077664375305 0.12176339328289032 0.07696519792079926 0.1668379157781601 -0.11990953236818314 0.003846600651741028 -0.17019891738891602
-0.15789777040481567 -0.15879210829734802 -0.06804025173187256 0.06470850110054016 -0.1123727485537529 -0.0839206725358963 0.07771097123622894 0.1539650410413742
0.15618599951267242 0.07854925096035004 0.1427823156118393 0.02917921543121338 -0.03848119080066681 0.10321016609668732 -0.0366266667842865 0.03509221971035004
-0.13164134323596954 0.05209563672542572 0.15534089505672455 -0.08316613733768463 -0.0035106390714645386 0.01729278266429901 -0.011448249220848083 0.10374455153942108
0.0431087464094162 -0.10522162914276123 0.07318854331970215 0.03182461857795715 -0.07811494916677475 0.1605595201253891 -0.15986225008964539 0.0013305097818374634
-0.08680783957242966 -0.11071944981813431 -0.143821582198143 -0.15510806441307068 0.01731567084789276 -0.06187475472688675 -0.07316726446151733 0.11656825244426727
-0.15213695168495178 0.05424301326274872 0.0649360865354538 0.0714455395936966 -0.022717341780662537 0.17407377064228058 -0.1473221331834793 -0.1300819218158722
-0.14483480155467987 -0.1667615920305252 0.06921601295471191 0.016688615083694458 -0.17141307890415192 0.1392935961484909 0.17286987602710724 0.015762463212013245
0.027532190084457397 0.06825725734233856 0.1758568435907364 -0.12721022963523865 0.13220606744289398 0.15241281688213348 0.05598418414592743 0.14033718407154083
-0.02039264142513275 0.11608551442623138 0.1676287204027176 -0.03032851219177246 -0.06975024938583374 0.14048974215984344 -0.048978954553604126 0.09117229282855988
-0.1492103785276413 -0.02515353262424469 -0.11296817660331726 -0.16576743125915527 0.019365787506103516 -0.004346773028373718 0.17382694780826569 -0.016059935092926025
-0.10010015219449997 -0.1548726111650467 -0.15638187527656555 -0.14384175837039948 -0.05648602545261383 -0.09128925204277039 -0.15353669226169586 -0.10438671708106995
0.07535625994205475 0.04091513156890869 -0.1477271020412445 0.05964493751525879 -0.0907161608338356 -0.17596058547496796 0.015807971358299255 -0.10439974069595337

weight_hh_l0 f8 [128, 32]
00000000: 0000 00c0 dcbb b9bf 0000 0040 0850 be3f
00000010: 0000 00a0 84cf c13f 0000 0000 ee35 84bf
00000020: 0000 0000 f189 903f 0000 0040 0d1e acbf
00000030: 0000 0000 252b a43f 0000 00a0 950f c23f
00000040: 0000 0020 2c9e babf 0000 00a0 8cd4 babf
00000050: 0000 0020 30db c4bf 0000 0040 e876 adbf
00000060: 0000 0000 87bd a63f 0000 0000 41ce ae3f
00000070: 0000 0000 00e3 123f 0000 00e0 821e bcbf
00000080: 0000 0080 1d1e afbf 0000 0080 4af2 a23f
00000090: 0000 00e0 5fbf c2bf 0000 00a0 d1d1 c13f
000000a0: 0000 0060 957c c43f 0000 0020 c147 c43f
000000b0: 0000 0000 b28f 833f 0000 0060 d4a9 c33f
000000c0: 0000 00e0 8499 c43f 0000 0040 6b67 b53f
000000d0: 0000 0080 8345 a23f 0000 0000 9158 953f
000000e0: 0000 0000 42aa 903f 0000 0080 adcb b6bf
000000f0: 0000 0000 0f5a acbf 0000 0000 2dfd 9d3f
00000100: 0000 0000 4129 90bf 0000 0040 d4ab bd3f
00000110: 0000 00a0 21cd c5bf 0000 00e0 eb68 c43f
00000120: 0000 0000 40f0 8e3f 0000 00e0 3468 c0bf
00000130: 0000 00c0 102e bd3f 0000 0080 25a7 b9bf
00000140: 0000 0080 4926 a6bf 0000 0000 d098 61bf
00000150: 0000 0000 0cf5 72bf 0000 0000 2136 9abf
00000160: 0000 00a0 744e c63f 0000 0080 3257 bcbf
00000170: 0000 0060 6e56 c1bf 0000 0000 9337 903f
00000180: 0000 0040 a3c4 b33f 0000 0080 fde1 a83f
00000190: 0000 0080 1ce7 c4bf 0000 0000 8de4 a03f
000001a0: 0000 0040 be5c bf3f 0000 00a0 6ded bcbf
000001b0: 0000 00c0 0d32 bb3f 0000 0000 6036 40bf
000001c0: 0000 0040 90fb bbbf 0000 0040 f5c2 bebf
000001d0: 0000 0040 4c65 c5bf 0000 0020 09e6 c2bf
000001e0: 0000 00e0 58cd c0bf 0000 00c0 3ece aabf
000001f0: 0000 00c0 f0fc c0bf 0000 0040 ac6c b73f
00000200: 0000 0000 01e7 943f 0000 00e0 4e1e c53f
00000210: 0000 0000 e69d a73f 0000 00c0 ece7 b63f
00000220: 0000 0000 b22e 91bf 0000 0040 499e b1bf
00000230: 0000 0000 80ab 3abf 0000 0040 cc07 b33f
00000240: 0000 0000 bfbc 913f 0000 0040 c21a abbf
00000250: 0000 0040 b9b3 bebf 0000 0040 f3e4 ba3f
00000260: 0000 0040 4968 c2bf 0000 0000 870d 923f
00000270: 0000 00c0 2cf7 c1bf 0000 0080 04c1 b8bf
00000280: 0000 0060 ff96 b9bf 0000 0040 673e bd3f
00000290: 0000 0080 1abc a9bf 0000 0020 7f6a c0bf
000002a0: 0000 00c0 4bbe bb3f 0000 0060 b277 c23f
000002b0: 0000 00e0 ae2d c3bf 0000 0040 740c be3f
000002c0: 0000 0000 1fad a0bf 0000 0020 2aa8 c2bf
000002d0: 0000 0000 7a23 92bf 0000 00e0 3d28 c03f
000002e0: 0000 0040 7135 b6bf 0000 00a0 75c9 c43f
000002f0: 0000 0000 daa2 9cbf 0000 00a0 aaca c23f
00000300: 0000 0060 c4a8 c03f 0000 0060 13c2 c23f
00000310: 0000 0040 d327 b43f 0000 0000 4964 ae3f
00000320: 0000 0020 0d8c c23f 0000 0060 26b5 c5bf
00000330: 0000 0060 1eb0 c13f 0000 00e0 fee5 c13f
00000340: 0000 0060 3e9c c33f 0000 00e0 36a5 c2bf
00000350: 0000 0080 8c43 c4bf 0000 0000 1d12 a03f
00000360: 0000 0000 f9dd b2bf 0000 0040 82e7 b93f
00000370: 0000 0000 6b36 95bf 0000 00c0 edf8 b93f
00000380: 0000 00c0 8987 b73f 0000 0060 7ddd c3bf
00000390: 0000 0040 e1c9 be3f 0000 0000 e998 953f
000003a0: 0000 0020 e8d1 c13f 0000 0000 fb2f a0bf
000003b0: 0000 0000 5bdf c3bf 0000 0000 429b a73f
000003c0: 0000 0020 465c b2bf 0000 00e0 947c c3bf
000003d0: 0000 00c0 732f be3f 0000 0080 0d38 a83f
000003e0: 0000 0000 90e8 ab3f 0000 0060 ce97 c23f
000003f0: 0000 0040 bd32 bc3f 0000 0080 3b20 a6bf
00000400: 0000 0080 d43e adbf 0000 0060 a3b4 c4bf
00000410: 0000 0060 40c8 c0bf 0000 0040 a12f b53f
00000420: 0000 00e0 063d bbbf 0000 00a0 9f62 c43f
00000430: 0000 0060 0feb c13f 0000 0000 e3ef c5bf
00000440: 0000 0000 a49a a13f 0000 0080 faec b9bf
00000450: 0000 0080 b5fa a0bf 0000 00c0 0446 bdbf
00000460: 0000 00c0 d802 b73f 0000 0040 b5f5 be3f
00000470: 0000 0080 254e ad3f 0000 00e0 9603 c2bf
00000480: 0000 0000 e925 993f 0000 0080 9c08 b6bf
00000490: 0000 0060 c35a c23f 0000 00a0 20f6 c23f
000004a0: 0000 0040 ebe2 b33f 0000 0060 27c2 bbbf
000004b0: 0000 0000 b859 803f 0000 0080 6930 b13f
000004c0: 0000 0000 f98a 92bf 0000 0000 4056 44bf
000004d0: 0000 0080 0282 bebf 0000 0000 2e73 b9bf
000004e0: 0000 00e0 9744 c13f 0000 0020 8093 c33f
000004f0: 0000 0080 aa1b af3f 0000 00c0 f4ce bd3f
00000500: 0000 0080 ff57 a33f 0000 0080 5207 adbf
00000510: 0000 0000 a85a 76bf 0000 0000 0403 a1bf
00000520: 0000 00c0 9f73 bdbf 0000 0000 6aa9 a93f
00000530: 0000 0000 0e69 a23f 0000 0020 9447 c23f
00000540: 0000 0000 0fa6 953f 0000 0000 7ac3 96bf
00000550: 0000 0020 956e b6bf 0000 0080 5299 abbf
00000560: 0000 00a0 540b c63f 0000 0040 78d5 b83f
00000570: 0000 0080 f635 c5bf 0000 0020 4586 b8bf
00000580: 0000 0060 be2b c43f 0000 0060 3646 b0bf
00000590: 0000 0060 7de1 c5bf 0000 0000 d26a ad3f
000005a0: 0000 0000 b939 a53f 0000 0000 fe50 ae3f
000005b0: 0000 0060 3fda c23f 0000 00a0 a8ec b5bf
000005c0: 0000 0020 5cdd bdbf 0000 00a0 5e54 c0bf
000005d0: 0000 00c0 8856 be3f 0000 0020 d717 bbbf
000005e0: 0000 0000 3c2f 843f 0000 0000 6d7a ad3f
000005f0: 0000 00e0 b814 b1bf 0000 00a0 6d5f c13f
00000600: 0000 0000 fda1 a53f 0000 0040 744c b53f
00000610: 0000 0060 56ac c0bf 0000 00e0 1c2d bfbf
00000620: 0000 0000 cce4 943f 0000 00c0 544f b93f
00000630: 0000 0000 7c40 ae3f 0000 0000 d749 bdbf
00000640: 0000 0080 ccf9 c5bf 0000 0000 207d 8ebf
00000650: 0000 0080 821e c6bf 0000 00a0 ef95 b6bf
00000660: 0000 0000 9f08 b03f 0000 0080 6b64 a2bf
00000670: 0000 0000 f4c6 a43f 0000 0040 fd0b c6bf
00000680: 0000 00e0 123e c03f 0000 0020 df45 c33f
00000690: 0000 0040 7faa bebf 0000 0080 f2ad ae3f
000006a0: 0000 0020 c94b c23f 0000 0080 a05f b1bf
000006b0: 0000 00c0 1206 c5bf 0000 0000 cac9 893f
000006c0: 0000 0040 fb78 bb3f 0000 0000 72c2 983f
000006d0: 0000 00c0 8605 bd3f 0000 0040 4998 bb3f
000006e0: 0000 0000 8a6d c6bf 0000 0080 56bd a33f
000006f0: 0000 0000 bd12 963f 0000 0000 2e18 9abf
00000700: 0000 0000 5dcf a9bf 0000 0000 90ca b03f
00000710: 0000 0000 5d89 a3bf 0000 0060 2044 c53f
00000720: 0000 00e0 eee1 bfbf 0000 0000 0ea7 8f3f
00000730: 0000 0020 e254 c4bf 0000 0040 7fc6 c1bf
00000740: 0000 00a0 8209 c2bf 0000 0000 f937 a4bf
00000750: 0000 0080 c6f1 a33f 0000 0000 8c40 a83f
00000760: 0000 0060 d94b c33f 0000 00c0 b53c bf3f
00000770: 0000 00a0 3678 c3bf 0000 0080 aa2b a43f
00000780: 0000 00a0 b9f1 bdbf 0000 0000 b078 723f
00000790: 0000 00a0 6755 b8bf 0000 00c0 a1d8 c0bf
000007a0: 0000 00c0 feea bdbf 0000 0040 418f bdbf
000007b0: 0000 00a0 7e6a c03f 0000 0000 f261 8e3f
000007c0: 0000 0080 e70c a0bf 0000 00c0 ebb1 ba3f
000007d0: 0000 0020 eaaa c23f 0000 00c0 2321 b3bf
000007e0: 0000 0060 eaee c33f 0000 0000 3c42 95bf
000007f0: 0000 0000 41f7 a0bf 0000 0000 c932 af3f
-0.10052280128002167 0.1184086948633194 0.13914544880390167 -0.00986848771572113 0.016151204705238342 -0.05491677671670914 0.039391666650772095 0.14110060036182404
-0.10397601872682571 -0.10480574518442154 -0.16293908655643463 -0.05754781514406204 0.04441472887992859 0.0601673424243927 7.204711437225342e-05 -0.10984056442975998
-0.06077663600444794 0.03700478374958038 -0.14646528661251068 0.13921566307544708 0.16005198657512665 0.1584397703409195 0.00955142080783844 0.15362028777599335
0.16093502938747406 0.08360929787158966 0.03568659722805023 0.020845666527748108 0.016274482011795044 -0.08904537558555603 -0.055374592542648315 0.029286101460456848
-0.015782371163368225 0.11590315401554108 -0.17032261192798615 0.1594519466161728 0.015106678009033203 -0.128180131316185 0.11398415267467499 -0.10020670294761658
-0.043260857462882996 -0.002148061990737915 -0.004628226161003113 -0.025597110390663147 0.17426927387714386 -0.11070552468299866 -0.13545016944408417 0.01583699882030487
0.07721920311450958 0.04859916865825653 -0.1633029580116272 0.032993704080581665 0.12250889837741852 -0.112997867166996 0.10623250901699066 -0.0004947632551193237
-0.10930730402469635 -0.12016232311725616 -0.16715386509895325 -0.14764513075351715 -0.13126669824123383 -0.05235477536916733 -0.13271912932395935 0.09150196611881256
0.02041245996952057 0.16498742997646332 0.04612654447555542 0.08947639167308807 -0.016779690980911255 -0.0688215047121048 -0.0004069507122039795 0.07433773577213287
0.017321571707725525 -0.05293852835893631 -0.11992986500263214 0.10505600273609161 -0.1438075602054596 0.017629727721214294 -0.1403556764125824 -0.09669521450996399
-0.09996028989553452 0.11423344910144806 -0.050263240933418274 -0.12825001776218414 0.10837243497371674 0.14427785575389862 -0.1498316377401352 0.11737753450870514
-0.03257080912590027 -0.14575697481632233 -0.017713457345962524 0.12622807919979095 -0.08675296604633331 0.1623980551958084 -0.02796497941017151 0.1468098908662796
0.13015036284923553 0.14654771983623505 0.0787326842546463 0.0593588650226593 0.14489902555942535 -0.1695907562971115 0.1381872147321701 0.13983140885829926
0.15320567786693573 -0.1456669420003891 -0.15831142663955688 0.03138819336891174 -0.07369953393936157 0.1011887937784195 -0.02071540057659149 0.10145460069179535
0.09191189706325531 -0.15519683063030243 0.12026794254779816 0.021091118454933167 0.13921834528446198 -0.03161606192588806 -0.15525376796722412 0.04610639810562134
-0.07172048836946487 -0.15223942697048187 0.11791156232357025 0.047302648425102234 0.05450868606567383 0.14525775611400604 0.11014921963214874 -0.04321466386318207
-0.057119980454444885 -0.16176263988018036 -0.13111118972301483 0.08275802433490753 -0.10639994591474533 0.15925975143909454 0.13998596370220184 -0.17138326168060303
0.03438293933868408 -0.10127225518226624 -0.03316275775432587 -0.11434964835643768 0.08988718688488007 0.12093670666217804 0.05723683536052704 -0.14073453843593597
0.02455867826938629 -0.08606889843940735 0.14339487254619598 0.1481362134218216 0.07768125832080841 -0.10843130201101303 0.007983624935150146 0.0671449601650238
-0.018108263611793518 -0.0006206333637237549 -0.11917129158973694 -0.09941375255584717 0.13490580022335052 0.1529388576745987 0.06075794994831085 0.11643914878368378
0.037780746817588806 -0.056696489453315735 -0.005457550287246704 -0.0332261323928833 -0.11504553258419037 0.050120651721954346 0.03595775365829468 0.1428094059228897
0.021141275763511658 -0.022230058908462524 -0.08762485533952713 -0.053904131054878235 0.17222078144550323 0.09700728952884674 -0.16570931673049927 -0.0957987979054451
0.15758495032787323 -0.06357135623693466 -0.17094390094280243 0.057455599308013916 0.041456013917922974 0.059211671352386475 0.14728538691997528 -0.08564237505197525
-0.11665893346071243 -0.12757475674152374 0.11850790679454803 -0.1058325245976448 0.009855717420578003 0.05757465958595276 -0.06672244518995285 0.135724738240242
0.04225149750709534 0.08319784700870514 -0.13025932013988495 -0.12178211659193039 0.020404040813446045 0.09886674582958221 0.059085726737976074 -0.11440795660018921
-0.17168575525283813 -0.014887094497680664 -0.17280608415603638 -0.0882253423333168 0.06263154745101929 -0.03592239320278168 0.0405803918838501 -0.17224088311195374
0.12689433991909027 0.15056981146335602 -0.11978907883167267 0.059920862317085266 0.1429377943277359 -0.06786540150642395 -0.16424784064292908 0.012591913342475891
0.10731478035449982 0.02417925000190735 0.11336557567119598 0.1077924519777298 -0.175217866897583 0.038553908467292786 0.021555855870246887 -0.025482863187789917
-0.050410181283950806 0.06559085845947266 -0.038157373666763306 0.1661415547132492 -0.12454121559858322 0.015455350279808044 -0.15884043276309967 -0.13887014985084534
-0.14091522991657257 -0.039489537477493286 0.03895397484302521 0.04736745357513428 0.1507522314786911 0.12202011048793793 -0.1521061211824417 0.03939564526081085
-0.11696968227624893 0.004509627819061279 -0.09505317360162735 -0.13161107897758484 -0.11686699092388153 -0.1154671460390091 0.12824995815753937 0.014835253357887268
-0.03134845197200775 0.1042773574590683 0.14584089815616608 -0.07472442090511322 0.15572862327098846 -0.02076047658920288 -0.03313639760017395 0.06093433499336243

bias_ih_l0 f8 [128]
00000000: 0000 0000 1f46 933f 0000 00c0 0ee5 c4bf
00000010: 0000 0020 6778 c4bf 0000 0000 5cec 81bf
00000020: 0000 0040 c0db b53f 0000 00a0 a4b2 c2bf
00000030: 0000 0060 6ae0 c3bf 0000 00c0 3529 acbf
00000040: 0000 0000 6ef8 8bbf 0000 0040 73fe bc3f
00000050: 0000 0000 2e7c 82bf 0000 0000 2987 afbf
00000060: 0000 0000 1680 8e3f 0000 00c0 6d9b c1bf
00000070: 0000 0040 64cd b33f 0000 00c0 7ee2 b63f
00000080: 0000 0000 b8ae afbf 0000 0040 40c0 bb3f
00000090: 0000 00e0 ccce c03f 0000 0000 ea09 9ebf
000000a0: 0000 0000 03e7 c2bf 0000 0040 b95f b53f
000000b0: 0000 0020 55f8 c1bf 0000 00c0 ff80 acbf
000000c0: 0000 0040 508a c6bf 0000 00e0 490e c33f
000000d0: 0000 0040 e58b c0bf 0000 0000 d008 733f
000000e0: 0000 0060 2a04 c3bf 0000 0000 30e6 5a3f
000000f0: 0000 0080 39d9 a2bf 0000 0000 487d c3bf
00000100: 0000 0020 9266 c23f 0000 0040 d0b6 b4bf
00000110: 0000 0040 13a9 bc3f 0000 00a0 17df c43f
00000120: 0000 0020 925a b0bf 0000 00a0 ced7 c13f
00000130: 0000 0000 609f 8a3f 0000 0000 056e 9b3f
00000140: 0000 00a0 52e0 c4bf 0000 0000 f64b abbf
00000150: 0000 0000 d0ac 9c3f 0000 0040 cdf3 b13f
00000160: 0000 0000 2aeb 8abf 0000 00c0 f267 bf3f
00000170: 0000 00a0 3ede c23f 0000 0000 fa61 923f
00000180: 0000 0000 c8d8 6a3f 0000 0020 aac8 c53f
00000190: 0000 0020 5a81 b3bf 0000 0080 f6e7 a2bf
000001a0: 0000 00e0 68ad c13f 0000 0060 070d b8bf
000001b0: 0000 0020 d92b bbbf 0000 0000 4080 3bbf
000001c0: 0000 0000 8071 783f 0000 0000 3894 61bf
000001d0: 0000 0020 9fb5 c5bf 0000 0040 dac5 b93f
000001e0: 0000 0080 feeb b9bf 0000 0080 fedc b03f
000001f0: 0000 00c0 0e1d bb3f 0000 0000 e5d7 963f
00000200: 0000 0000 6432 87bf 0000 0080 5d14 c6bf
00000210: 0000 0080 5273 a73f 0000 0000 7f0b 97bf
00000220: 0000 0020 0aac babf 0000 00e0 9ef4 c03f
00000230: 0000 0000 5a60 853f 0000 0060 a283 c53f
00000240: 0000 0060 c2ca c4bf 0000 0080 9aba a3bf
00000250: 0000 0000 5149 933f 0000 0040 e50d bd3f
00000260: 0000 0020 7d6c c23f 0000 0000 df70 acbf
00000270: 0000 0060 33e2 c4bf 0000 0080 2859 b23f
00000280: 0000 00a0 d6e9 bfbf 0000 0000 8c57 a63f
00000290: 0000 0000 058f 97bf 0000 0000 fd97 a4bf
000002a0: 0000 00c0 2e98 adbf 0000 00c0 49da b7bf
000002b0: 0000 0040 ec9e c0bf 0000 0000 4595 a63f
000002c0: 0000 0000 3920 a63f 0000 0080 7fe1 c4bf
000002d0: 0000 0060 0db5 c03f 0000 00c0 8509 bc3f
000002e0: 0000 0000 0ccf a4bf 0000 0000 f06f 513f
000002f0: 0000 0040 ccf4 b93f 0000 00c0 c220 bbbf
00000300: 0000 0000 7476 a33f 0000 0040 7fc9 b93f
00000310: 0000 00a0 4226 c23f 0000 0000 9690 a13f
00000320: 0000 00c0 478d b73f 0000 00c0 c363 bfbf
00000330: 0000 0080 3738 b0bf 0000 00c0 c3bd c3bf
00000340: 0000 00c0 0255 bfbf 0000 0080 f0d3 a73f
00000350: 0000 0000 3cbb b5bf 0000 00e0 14f0 c53f
00000360: 0000 0000 13c0 94bf 0000 0080 9d9e ad3f
00000370: 0000 00c0 8c73 c0bf 0000 00e0 1634 c23f
00000380: 0000 00e0 a4f0 c53f 0000 0020 bd50 c63f
00000390: 0000 0020 a008 c13f 0000 0080 0d65 bfbf
000003a0: 0000 0040 b834 b83f 0000 00a0 832f c43f
000003b0: 0000 0000 6df2 c4bf 0000 0000 0e66 91bf
000003c0: 0000 0080 c008 bebf 0000 0060 bdb4 c4bf
000003d0: 0000 00a0 2753 b2bf 0000 0000 f664 8c3f
000003e0: 0000 00c0 ee82 b83f 0000 00c0 1515 be3f
000003f0: 0000 0000 1dce a23f 0000 0040 1d16 b53f
0.01882217824459076 -0.16324028372764587 -0.15992440283298492 -0.008751600980758667 0.08538438379764557 -0.1460767537355423 -0.15528611838817596 -0.05500190705060959
-0.013657435774803162 0.11325760185718536 -0.009025916457176208 -0.061578065156936646 0.014892742037773132 -0.1375558078289032 0.07735277712345123 0.08939354121685028
-0.061879873275756836 0.10840226709842682 0.13131104409694672 -0.029334694147109985 -0.14767491817474365 0.08349187672138214 -0.140391007065773 -0.05567168444395065
-0.17609599232673645 0.14887355268001556 -0.12926927208900452 0.00464707612991333 -0.14856462180614471 0.001641795039176941 -0.03681354224681854 -0.15226078033447266
0.1437552124261856 -0.08091451227664948 0.11195488274097443 0.16305823624134064 -0.0638820007443428 0.13939841091632843 0.012999296188354492 0.02678687870502472
-0.16309578716754913 -0.05331391096115112 0.02800297737121582 0.07012636959552765 -0.013143852353096008 0.12267987430095673 0.14740736782550812 0.017951875925064087
0.003277197480201721 0.17018629610538483 -0.07619250565767288 -0.03692598640918732 0.13810454308986664 -0.09394880384206772 -0.10613781958818436 -0.00041963160037994385
0.005967617034912109 -0.0021458715200424194 -0.16960515081882477 0.10067524015903473 -0.10125723481178284 0.06587210297584534 0.10591213405132294 0.022307947278022766
-0.011326581239700317 -0.172496497631073 0.045801714062690735 -0.022504791617393494 -0.10418761521577835 0.13246522843837738 0.010437682271003723 0.1680796593427658
-0.16243772208690643 -0.0385330468416214 0.018834367394447327 0.11349327862262726 0.14393581449985504 -0.055548638105392456 -0.16315309703350067 0.0716729462146759
-0.12466184049844742 0.04363667964935303 -0.023006513714790344 -0.04022207856178284 -0.057801686227321625 -0.09317456185817719 -0.12984994053840637 0.044107586145401
0.0432145893573761 -0.16313165426254272 0.13052527606487274 0.10952030122280121 -0.0406421422958374 0.0010642856359481812 0.10139156877994537 -0.10596863925457001
0.03801310062408447 0.10073085129261017 0.14179261028766632 0.034306228160858154 0.09199951589107513 -0.12261603772640228 -0.06335780024528503 -0.15422865748405457
-0.12239091098308563 0.04653884470462799 -0.08488821983337402 0.17138920724391937 -0.020263954997062683 0.05785076320171356 -0.12852630019187927 0.14221464097499847
0.17140637338161469 0.1743389517068863 0.13307572901248932 -0.12263569235801697 0.09455443918704987 0.15770001709461212 -0.16364824771881104 -0.016990870237350464
-0.11732104420661926 -0.16176573932170868 -0.07158134132623672 0.013864442706108093 0.09574787318706512 0.11750923097133636 0.03672876954078674 0.08236868679523468

bias_hh_l0 f8 [128]
00000000: 0000 0080 e8a6 bdbf 0000 0000 99f8 933f
00000010: 0000 0060 8b66 c43f 0000 00c0 8072 b83f
00000020: 0000 0000 a54a afbf 0000 0040 e7ac abbf
00000030: 0000 0000 6a9d 9bbf 0000 0000 a267 c1bf
00000040: 0000 0080 27ac a73f 0000 0000 cc3b 8b3f
00000050: 0000 0000 307f 5e3f 0000 0000 5ba6 b5bf
00000060: 0000 0080 8642 c5bf 0000 00e0 6b0d c03f
00000070: 0000 0060 4979 c4bf 0000 0000 d4a8 84bf
00000080: 0000 0040 2d3a c4bf 0000 0040 a33e c2bf
00000090: 0000 0000 943e c2bf 0000 0000 c059 ae3f
000000a0: 0000 00c0 16a6 b73f 0000 0080 930b b0bf
000000b0: 0000 0060 4a26 c4bf 0000 0000 bfa7 c1bf
000000c0: 0000 0000 d9fe bcbf 0000 0040 83ec bdbf
000000d0: 0000 0060 26d6 c13f 0000 0000 48b7 613f
000000e0: 0000 0000 f307 93bf 0000 00a0 c0b4 c13f
000000f0: 0000 0000 4b9d b0bf 0000 0080 17c5 aa3f
00000100: 0000 0080 38ec b9bf 0000 0000 508e ac3f
00000110: 0000 0080 1539 a23f 0000 0000 4ea5 9cbf
00000120: 0000 00c0 6439 c1bf 0000 0060 8c52 b6bf
00000130: 0000 0020 9809 c43f 0000 00e0 893b b7bf
00000140: 0000 0000 e4fb b1bf 0000 00c0 adcc bf3f
00000150: 0000 0040 d2b2 bbbf 0000 00c0 a17e b33f
00000160: 0000 0080 06f1 c1bf 0000 00a0 fe5a c33f
00000170: 0000 00c0 e685 b63f 0000 0080 716c a4bf
00000180: 0000 0080 8f42 a6bf 0000 0040 871d c5bf
00000190: 0000 0080 521c c2bf 0000 00e0 edcd c3bf
000001a0: 0000 0000 18ad a0bf 0000 00e0 e219 b8bf
000001b0: 0000 0000 4a22 923f 0000 00a0 5ad4 c43f
000001c0: 0000 0020 975b c53f 0000 0080 3386 b4bf
000001d0: 0000 00c0 5f48 b73f 0000 0000 cb88 a7bf
000001e0: 0000 0000 4993 aebf 0000 0000 144c 753f
000001f0: 0000 0000 ca60 86bf 0000 00e0 259c c0bf
00000200: 0000 00c0 66df b8bf 0000 00c0 18a7 bfbf
00000210: 0000 0000 f5a3 a2bf 0000 00c0 8859 aebf
00000220: 0000 0000 7915 bebf 0000 00c0 829d bb3f
00000230: 0000 00e0 382b c43f 0000 00c0 8387 ba3f
00000240: 0000 0000 7a87 883f 0000 0080 66c8 acbf
00000250: 0000 0060 4075 bfbf 0000 00e0 9b42 b4bf
00000260: 0000 0020 247c c43f 0000 00c0 138a b33f
00000270: 0000 00e0 0d38 c53f 0000 0040 29a9 bb3f
00000280: 0000 00c0 5340 b43f 0000 0000 d83c 973f
00000290: 0000 0020 9ca2 c33f 0000 0000 4b92 a13f
000002a0: 0000 00e0 21fe b2bf 0000 0000 002f 223f
000002b0: 0000 0000 94f3 a9bf 0000 0020 97ce c4bf
000002c0: 0000 0040 85dc bebf 0000 0020 d0af c13f
000002d0: 0000 0080 55bf b7bf 0000 00e0 a1bc b7bf
000002e0: 0000 0080 1b83 a53f 0000 0060 e7f3 c03f
000002f0: 0000 0080 4b27 a83f 0000 0000 5cb4 c1bf
00000300: 0000 00a0 83d2 c5bf 0000 0080 68e2 b9bf
00000310: 0000 0000 fdb8 9fbf 0000 0040 2fb3 ba3f
00000320: 0000 0080 6bca a53f 0000 00e0 3759 b9bf
00000330: 0000 0000 1d88 96bf 0000 00e0 bb7c c53f
00000340: 0000 00c0 b049 ba3f 0000 00c0 b672 b8bf
00000350: 0000 00c0 56bf b23f 0000 0080 efd2 aa3f
00000360: 0000 00a0 6b1f c23f 0000 0000 dc5d 78bf
00000370: 0000 0020 0404 c53f 0000 0080 de53 ac3f
00000380: 0000 00c0 4994 b0bf 0000 0000 7e9d 8ebf
00000390: 0000 0000 8c19 843f 0000 0000 f48e 783f
000003a0: 0000 0080 a27c a0bf 0000 0000 5c2d 73bf
000003b0: 0000 0060 9e2a babf 0000 0040 481a b53f
000003c0: 0000 0040 0872 b83f 0000 00c0 9fd1 bc3f
000003d0: 0000 00a0 5106 bbbf 0000 0000 503d 6d3f
000003e0: 0000 0080 cf05 a23f 0000 00a0 6464 c03f
000003f0: 0000 0000 3cce 8fbf 0000 0040 e6d9 afbf
-0.11582806706428528 0.01950301229953766 0.15937940776348114 0.09549717605113983 -0.06111636757850647 -0.054053522646427155 -0.026967674493789673 -0.13597512245178223
0.046235308051109314 0.01329764723777771 0.00186137855052948 -0.08456963300704956 -0.16609269380569458 0.1254095882177353 -0.1599513739347458 -0.010087639093399048
-0.15802541375160217 -0.14253655076026917 -0.14253473281860352 0.05927848815917969 0.09237806499004364 -0.06267663836479187 -0.15741853415966034 -0.1379317045211792
-0.11326366662979126 -0.11689014732837677 0.1393478363752365 0.0021625906229019165 -0.01858501136302948 0.13832862675189972 -0.06490010023117065 0.05228494107723236
-0.10126069188117981 0.055773258209228516 0.035591766238212585 -0.027974337339401245 -0.13456401228904724 -0.08719708770513535 0.1565427929162979 -0.09075223654508591
-0.07024979591369629 0.12421689927577972 -0.10819734632968903 0.07615099847316742 -0.14016801118850708 0.15121443569660187 0.08798067271709442 -0.039889857172966
-0.043476566672325134 -0.16496363282203674 -0.14148932695388794 -0.1547219604253769 -0.032570600509643555 -0.09414499253034592 0.017708927392959595 0.16273052990436554
0.16685761511325836 -0.08017274737358093 0.09094808995723724 -0.0459655225276947 -0.05971744656562805 0.005199506878852844 -0.010926797986030579 -0.12976525723934174
-0.09715883433818817 -0.12364344298839569 -0.036407142877578735 -0.05927684158086777 -0.11751514673233032 0.10787217319011688 0.1575690358877182 0.10363028943538666
0.011977151036262512 -0.05621643364429474 -0.12288286536931992 -0.07914137095212936 0.16003848612308502 0.07632564008235931 0.16577313840389252 0.10804994404315948
0.07910655438899994 0.02269303798675537 0.15339995920658112 0.03431925177574158 -0.07419025152921677 0.00013872981071472168 -0.05068647861480713 -0.16255463659763336
-0.12055237591266632 0.13817788660526276 -0.0927632749080658 -0.09272205084562302 0.04201589524745941 0.1324433535337448 0.04717479646205902 -0.13831663131713867
-0.17048688232898712 -0.10111096501350403 -0.030979111790657043 0.10429663956165314 0.04255996644496918 -0.09901761263608932 -0.02200360596179962 0.16786907613277435
0.10268692672252655 -0.0955003947019577 0.07323209941387177 0.05239056050777435 0.1415838748216629 -0.005948886275291443 0.1641850620508194 0.05532737076282501
-0.06476269662380219 -0.014948830008506775 0.009814351797103882 0.005995705723762512 -0.032200887799263 -0.00468192994594574 -0.1022128090262413 0.08243228495121002
0.0954899936914444 0.11257360875606537 -0.10556516796350479 0.003569275140762329 0.0352005809545517 0.12806375324726105 -0.01553007960319519 -0.06220931559801102
